autoencoder.pth (torch, 3255 bytes, 7 tensors)

encoder.0.weight f4 [5, 1]
-0.00866281 1.1715194 -1.291653e-12 -4.12329e-10 0.22320141
00000000: 75ee 0dbc 59f4 953f b4c8 b5ab 26ae e2af
00000010: e98e 643e

encoder.0.bias f4 [5]
1.0363463 -0.5970082 3.5316704e-15 -1.94482e-40 1.0754465
00000000: ffa6 843f 88d5 18bf d27b 7e27 231e 0280
00000010: 3ba8 893f

encoder.2.weight f4 [10, 5]
-0.6605806 0.1426189 -7.5683e-41 -4.48425e-40 0.53883445 -0.26681876 0.11857926 -3.15064e-40
-2.14229e-40 0.44257703 -0.45387682 0.15448385 6.86192e-40 -5.8556e-41 0.07403149 0.7289993
-0.2954714 -3.98892e-40 2.3770708e-38 -0.30227414 0.82194257 -0.28582793 1.42862e-40 1.0671e-41
-0.0193539 -0.18337448 0.30724752 1.70059e-40 5.85014e-40 0.16276431 -0.6550148 0.5641882
-5.29541e-40 1.71568e-40 0.45690113 -0.8782038 0.17789127 -2.4964143e-38 -1.03671e-40 -0.060012683
0.6799822 -0.19344375 -1.0878218e-37 5.41795e-40 -0.28708002 0.4428289 -0.045152336 2.3776e-41
3.38854e-40 -0.4606167
00000000: cf1b 29bf b00a 123e f9d2 0080 07e2 0480
00000010: 0ef1 093f 789c 88be afd9 f23d 456e 0380
00000020: 2f55 0280 7599 e23e 8b62 e8be 0431 1e3e
00000030: d378 0700 3ba3 0080 d29d 973d b39f 3a3f
00000040: 0748 97be f357 0480 886b 0101 adc3 9abe
00000050: d46a 523f 0a58 92be 3e8e 0100 bf1d 0000
00000060: 128c 9ebc 85c6 3bbe 8c4f 9d3e 0eda 0100
00000070: c85e 0600 b0ab 263e 0daf 27bf a36e 103f
00000080: 25c4 0580 43de 0100 f2ee e93e f7d1 60bf
00000090: 2129 363e f0ea 0781 fe20 0180 dccf 75bd
000000a0: 5013 2e3f 1e16 46be 0f11 1482 4ee6 0500
000000b0: 27fc 92be 78ba e23e a8f1 38bd 4742 0000
000000c0: 96b0 0300 f4d5 ebbe

encoder.2.bias f4 [10]
0.46236014 0.09792107 0.35683268 0.30706912 -0.07938226 0.025407283 0.16354729 0.33511114
-0.36960676 -0.11794337
00000000: 78ba ec3e d88a c83d c6b2 b63e 2a38 9d3e
00000010: 2b93 a2bd ef22 d03c f178 273e b093 ab3e
00000020: 193d bdbe 4b8c f1bd

decoder.0.weight f4 [5, 10]
-0.00081585033 -0.0013224182 -0.00086036755 0.0043405653 0.0054754326 -0.00062166795 0.00022785604 0.00074816216
0.0011722378 0.0014365863 0.17897274 0.32408404 0.3143942 -0.3868077 -0.33970433 -0.115947016
0.36318597 0.23898642 -0.14423712 -0.20131494 0.066137806 0.061708953 0.21704434 -0.17846546
-0.11661508 0.46067056 0.34896085 0.42176846 -0.03671589 -0.22190106 -0.0031671834 0.011574762
-1.4999116e-12 -2.5586762e-05 0.0008792392 -5.047273e-07 -0.006868663 0.00048143926 -0.0057717892 -0.0002016792
0.3710237 0.071150415 0.28651336 0.13369806 -0.20832829 0.1233487 0.18714844 0.28885722
-0.41578642 -0.04803046
00000000: cade 55ba fe54 adba 4a8a 61ba 4d3b 8e3b
00000010: 426b b33b 6ef7 22ba a4ec 6e39 5020 443a
00000020: c6a5 993a d64b bc3a a144 373e 58ee a53e
00000030: 47f8 a03e a90b c6be baed adbe a175 edbd
00000040: 83f3 b93e dbb8 743e e5b2 13be 8125 4ebe
00000050: 4273 873d 87c2 7c3d df40 5e3e a6bf 36be
00000060: e3d3 eebd 03dd eb3e ffaa b23e 09f2 d73e
00000070: 6763 16bd 083a 63be 8590 4fbb 12a4 3d3c
00000080: 0318 d3ab 27a3 d6b7 be7c 663a 997c 07b5
00000090: 8512 e1bb af69 fc39 4721 bdbb d979 53b9
000000a0: d2f6 bd3e 4fb7 913d e1b1 923e 25e8 083e
000000b0: 0354 55be 3e9e fc3d d7a3 3f3e 18e5 933e
000000c0: f5e1 d4be 96bb 44bd

decoder.0.bias f4 [5]
-0.005223259 0.29769963 0.22261955 -0.021165444 0.52065814
00000000: df27 abbb 166c 983e 61f6 633e 2763 adbc
00000010: da49 053f

decoder.2.weight f4 [1, 5]
-0.034929108 0.2683997 0.5644749 -0.005203067 0.5825482
00000000: d311 0fbd af6b 893e 6d81 103f 7d7e aabb
00000010: e121 153f
