embedder.pth (torch, 1198 bytes, 1 tensors)

weight f4 [10, 10]
0	0x00000000	0.0
1	0x00000000	0.0
2	0x00000000	0.0
3	0x00000000	0.0
4	0x00000000	0.0
5	0x00000000	0.0
6	0x00000000	0.0
7	0x00000000	0.0
8	0x00000000	0.0
9	0x00000000	0.0
10	0x400600d2	2.0938
11	0x3f2367a1	0.6383
12	0x3eda5e35	0.4265
13	0xbdd8793e	-0.1057
14	0xbf7d844d	-0.9903
15	0x3d45d639	0.0483
16	0x4004a3d7	2.0725
17	0x40308e8a	2.7587
18	0x3ff7dbf5	1.9364
19	0x3f052546	0.5201
20	0xbf4bac71	-0.7956
21	0xbe1fd8ae	-0.1561
22	0xbf20aa65	-0.6276
23	0x40069c78	2.1033
24	0xc026b9f5	-2.6051
25	0x3dea161e	0.1143
26	0x3f8f65fe	1.1203
27	0xbf06c8b4	-0.5265
28	0x3e597f63	0.2124
29	0x3e9b4a23	0.3033
30	0x3e6cf41f	0.2314
31	0xbf94fdf4	-1.164
32	0xbf1930be	-0.5984
33	0x3f129c78	0.5727
34	0xbfbfced9	-1.4985
35	0x3d3089a0	0.0431
36	0xbe967a10	-0.2939
37	0x3fb40ebf	1.4067
38	0x3f68adac	0.9089
39	0xbf09ba5e	-0.538
40	0x3e57a787	0.2106
41	0x3f197247	0.5994
42	0x403d19ce	2.9547
43	0x3fb20275	1.3907
44	0xbf617c1c	-0.8808
45	0xbeb6a162	-0.3567
46	0x3d9a0275	0.0752
47	0xbe4c985f	-0.1998
48	0xbfa09375	-1.2545
49	0xbf8bf141	-1.0933
50	0xbf2e425b	-0.6807
51	0x3e041893	0.129
52	0xbf5b645a	-0.857
53	0xbc9c779a	-0.0191
54	0x3fa119ce	1.2586
55	0xbf1b5dcc	-0.6069
56	0x3f197f63	0.5996
57	0x3f4902de	0.7852
58	0xbe1566cf	-0.1459
59	0xbda47454	-0.0803
60	0x3f8b74bc	1.0895
61	0xbf75a858	-0.9596
62	0x3c8240b8	0.0159
63	0x3e9afb7f	0.3027
64	0x3f9f1aa0	1.243
65	0x3f37ef9e	0.7185
66	0x3e16872b	0.147
67	0x3e84b5dd	0.2592
68	0x3fe57a78	1.7928
69	0xbf9b367a	-1.2126
70	0x3fa34d6a	1.2758
71	0xbeb367a1	-0.3504
72	0xbe5a9fbe	-0.2135
73	0xbf8404ea	-1.0314
74	0x3dfd8adb	0.1238
75	0xc004be0e	-2.0741
76	0x3f9bf7cf	1.2185
77	0xbea240b8	-0.3169
78	0xbed2b021	-0.4115
79	0x3f0a43fe	0.5401
80	0xbfe1930c	-1.7623
81	0xbeb4fdf4	-0.3535
82	0x3e69c77a	0.2283
83	0xbe9dd97f	-0.3083
84	0xbfb9d14e	-1.4517
85	0xbf843958	-1.033
86	0xbeff9724	-0.4992
87	0xbfacd9e8	-1.3504
88	0x3da9930c	0.0828
89	0xbefc01a3	-0.4922
90	0xbf4367a1	-0.7633
91	0xbf10068e	-0.5626
92	0xbe28f5c3	-0.165
93	0x40428a72	3.0397
94	0xbfc346dc	-1.5256
95	0xbf623a2a	-0.8837
96	0x3f998c7e	1.1996
97	0xbf97c505	-1.1857
98	0xbf90ebee	-1.1322
99	0xbf289a02	-0.6586
